data.pth (torch, 9898 bytes, 6 tensors)

l1.weight f4 [8, 135]
00000000: 4f7d 89bc 9fdb fbbe 711d 523e f404 f23e
00000010: d428 c33e 3aa7 b3be 660d b8be ae5a f93e
00000020: 7287 84bf f4d4 ac3e 39d7 01be f7d1 d9be
00000030: 2ae7 16be cb3a 02bf 4ef4 10bf 0f31 b0be
00000040: b825 243f 48fd c13e eba4 ab3d d1b1 963e
00000050: babe 17bf 380b 6a3f 371f 4bbf 3c8f e93e
00000060: bc44 f33e e670 013f 0ed7 b2bd 4bb8 783f
00000070: 6251 9b3f 0ab7 713d bf91 c43b bcf1 e43e
00000080: 8f5c f73e c16c 193d 42d0 1dbf 9c0e 1a3f
00000090: 9e23 18be 491f e1bc 3257 9d3f fa88 adbe
000000a0: 40b3 d83a 45b1 57bd 3a28 1b3f 0143 ffbe
000000b0: 410d 7cbf b362 d2be f2c5 82bf d162 8bbe
000000c0: 5b6e 2ebe 412a c3be 2856 803e 9a4a 033e
000000d0: d9b5 b7bd 03e3 0cbd 2adb 24bd 7adf 2c3f
000000e0: 4f2c 573e 844a 1ebe b80f 15bd 1e8f 1e3f
000000f0: a83f 19bc 1ab4 aabf 8168 653e 09b4 553f
00000100: b960 8ebd a275 633f 36d8 4c3f b28a 1e3f
00000110: 8208 a4bd 5a3d 9ebd bbc7 553d 9db5 fb3e
00000120: 50a9 ac3e 73c6 1dbd bd61 513e efee d13f
00000130: a6f2 53be 0007 8d3e 4cf4 db3d 8540 f53e
00000140: 8d92 ab3d a599 e9be 89a7 37bc 5f21 903d
00000150: 57a2 fabe 0dc7 803f 5aec 3d3f 61d4 2bbe
00000160: 418d 2f3e 4c22 2bbf baef 593c 7ca1 18bf
00000170: 5297 32be d5be f83e 80b7 49bd a210 00bd
00000180: ff0b bf3e 9e0a e33e a5e3 debd fc77 5c3f
00000190: aa92 30be e661 05bf b1d4 d1bc 783f acbe
000001a0: 1bf0 cc3e 0129 263f 7c4f 26bf 9120 b2be
000001b0: f055 38bf 1a28 193e 0808 54be 119b 733f
000001c0: 771f d33d b47f 0b3f 4ccc 0a3f 8c54 1e3e
000001d0: 9bc8 313e 7580 1c3c 18f4 0e3f c92c 72be
000001e0: 0ae5 4d3e 60ce 133f fffe 81bf 6beb 11be
000001f0: a19f 31bf 8c09 90bd 5bef b73f 454a 193f
00000200: 44f5 243f 9e41 bebe fd3b bc3e 33fb 893f
00000210: 8934 02bf d665 fc3e d8b4 f83e d815 563f
00000220: f504 ddbe d419 253e 3272 4d3f 33cb 22bf
00000230: 44a2 43bf 182c 103f 80f9 90be 6e57 76bf
00000240: 7ae2 cfbe b19a 71be 755b 1f3f c88a b03e
00000250: 9b65 01bf 6f05 1bbf 5b3a a1bd 3faa 55bf
00000260: 5e3d a33e 6f41 2abe 50f4 013f 7991 6cbf
00000270: 4314 b43f 4535 063f f8fb 2abf ca9a 19bf
00000280: 7c3b b93e 79ea 443f b68a 7cbf cd28 ecbe
00000290: 8a84 93be bb26 b83e 47ce 213f aff7 5abf
000002a0: 400c 983f 9061 e53e 47e6 003f 4e4a 88bd
000002b0: be52 3a3f b9fc 233e 3093 50bf 2ab1 01be
000002c0: 925b 4ebe 54e8 9b3e 1c15 00bf 0cb0 d03e
000002d0: 4c63 b7be 751b 61bf 4e7f 01bf c8f2 c13e
000002e0: cb99 d3bd ef56 d5be 7f5b 033f 6863 603f
000002f0: 2ea8 cbbd 10ff 64bf 29f4 58bf a1e0 973e
00000300: c608 f13e 5021 643c 5306 063f 5b85 c6be
00000310: 755a c1bf 8023 993e 4ed5 18bf fceb 993e
00000320: ce5a 32bf 9adb 15bf d957 9ebd b764 403f
00000330: fd9f a73e d501 133f d91c ce3e 0f57 21bf
00000340: a009 a0be d3c7 f93e cc5c f93e 438a f7bd
00000350: 7bc6 54bd 08d2 8c3e b82c 99bd a861 9d3e
00000360: 87f1 26be 6188 ffbd bc04 c13c 600e e1be
00000370: 6a2e 0b3f 4a78 123e 29bb 20bd c022 e03e
00000380: d5da b03f 5134 33bf 7bb5 5d3e 55d6 89be
00000390: 9d95 eebd e982 2bbc 695d e1bc 4ddc 2fbe
000003a0: 3f95 cb3e b7c9 8a3e c62e 873f 0854 8cbd
000003b0: 6051 16bf 86e5 5abe 4a4e 22bd f4be 3ebf
000003c0: da65 b03e ff0d 483f d7f6 9dbc 0bd2 b43f
000003d0: ac99 113f e1a3 09bf b7ae 203e cf3b 37be
000003e0: eacc f83e f798 3d3f 3207 ca3e e205 e13f
000003f0: 8ecf 5a3f f954 bcbe 73c9 ccbe ad11 183f
-0.016783385 -0.49190995 0.20519044 0.47269404 0.38117087 -0.3508852 -0.35947722 0.48701996
-1.0353835 0.3375622 -0.12679757 -0.42543003 -0.1473662 -0.5087096 -0.5662278 -0.3441243
0.64120054 0.3788855 0.08381065 0.29432538 -0.592754 0.9142337 -0.79344505 0.45617092
0.47513378 0.50562894 -0.08732425 0.9715621 1.2134211 0.05901245 0.0059988196 0.4471568
0.48312804 0.03745723 -0.616459 0.6017854 -0.14857337 -0.027480738 1.2292235 -0.33893567
0.0016532913 -0.05265929 0.60608256 -0.49855807 -0.98457724 -0.41090927 -1.0216658 -0.27223828
-0.17034285 -0.38118175 0.25065732 0.12821427 -0.089702316 -0.034396183 -0.040248074 0.675285
0.21012996 -0.15458113 -0.036391944 0.6193713 -0.009353556 -1.3336213 0.22403146 0.83477837
-0.06952042 0.8885137 0.8001741 0.6193038 -0.08009435 -0.07726546 0.05219243 0.49161997
0.33722925 -0.038519334 0.2044744 1.6401042 -0.20698032 0.27544403 0.10739955 0.47900787
0.08377562 -0.45625034 -0.011209377 0.07037615 -0.4895198 1.0060745 0.7418877 -0.16780235
0.17143728 -0.6684921 0.013301784 -0.59621406 -0.17440537 0.48583093 -0.049247265 -0.031265862
0.3731384 0.44344038 -0.108832635 0.8612058 -0.17243448 -0.52102506 -0.025614114 -0.33642173
0.40026936 0.64906317 -0.64965034 -0.3479047 -0.7200613 0.14956704 -0.20706189 0.9515849
0.10308736 0.54491735 0.5421798 0.1546194 0.17361681 0.009552111 0.5584121 -0.23649897
0.20106903 0.5773678 -1.0155944 -0.14249961 -0.693842 -0.07033071 1.436992 0.5987895
0.64436746 -0.37159437 0.36764517 1.0779785 -0.5086141 0.49296445 0.48575473 0.8362708
-0.43167844 0.16123134 0.80252373 -0.6359131 -0.7641947 0.5631728 -0.28315353 -0.9622716
-0.40602475 -0.23594166 0.6224893 0.34480882 -0.5054566 -0.60555166 -0.078724585 -0.834629
0.31882757 -0.16626523 0.50763416 -0.92409474 1.4068683 0.5242503 -0.66790724 -0.60001814
0.36178195 0.76920277 -0.98649156 -0.4612488 -0.28812057 0.3596705 0.6320538 -0.85534185
1.1878738 0.44800997 0.50351375 -0.066547975 0.72782505 0.16014375 -0.8147459 -0.12665239
-0.20152119 0.3045069 -0.5003221 0.40759313 -0.35817945 -0.8793252 -0.50584877 0.3788054
-0.10332068 -0.41667888 0.51311487 0.8765168 -0.09944187 -0.89451694 -0.8474756 0.29663566
0.47077006 0.013923958 0.523534 -0.38773617 -1.510573 0.29909897 -0.5970048 0.30062854
-0.69669807 -0.5853821 -0.07731599 0.7515368 0.3273925 0.5742467 0.40256384 -0.63023466
-0.31257343 0.48785266 0.4870361 -0.12086918 -0.0519471 0.2750399 -0.074792325 0.30738568
-0.16303073 -0.12477184 0.023561828 -0.4395628 0.543677 0.14303699 -0.03924099 0.43776512
1.3816782 -0.70001704 0.2165126 -0.26921335 -0.1164963 -0.010468223 -0.027510362 -0.17173882
0.39762303 0.2710702 1.0561149 -0.06851965 -0.5871792 -0.21376619 -0.039625444 -0.7451012
0.34452707 0.78146356 -0.019282741 1.41266 0.5687511 -0.53765684 0.15691648 -0.17893909
0.48593837 0.7406153 0.39458615 1.757992 0.85472953 -0.3678358 -0.39997444 0.5940197

l1.bias f4 [8]
00000000: bf94 893f 31dd 8b3f b2ca 983f 7938 5e3f
00000010: e5b6 b43f 22a3 8b3f 4095 c53f a4e9 483f
1.0748519 1.0926877 1.1936858 0.8680492 1.4118315 1.0909159 1.5436172 0.7848151

l2.weight f4 [8, 8]
00000000: 90a6 933d 8014 1dbc 1d39 95be ef99 8abe
00000010: a7e0 15be 7aac a8be 28e9 cdbd 37dc ae3e
00000020: 3bd8 1c40 1768 da3f e58a 3540 29ac fb3f
00000030: e831 363f 1824 0ebf fb8b 47be 1acc b83f
00000040: 837e 3b3e 090e b43e 18bd b8bf 5877 4fbf
00000050: f857 0d3f bd38 e13f b727 1c3f a2c0 f43f
00000060: 19d6 13bf 9226 23bf e646 333e 2028 743e
00000070: a950 92bf 8663 1940 1669 ca3f 54a4 ce3f
00000080: fa91 833f 234f 0b40 232c 56bf 87d8 d1bf
00000090: dd96 1740 bdd8 d9bd a429 a3bd a10e 15bb
000000a0: 3466 dabf 227d ce3f 99be 39bf 1ba9 d93f
000000b0: 17fb 0f40 3962 1d3f cb69 69bd c415 6d3f
000000c0: a02e f93d 4137 34ba e3e9 203e e4eb 50bf
000000d0: bfd9 913f a731 1fbe ae3b 1940 4c66 e1bf
000000e0: 55ba 69be f680 04c0 1711 9fbd deac 0540
000000f0: 741f b73f 0e03 433f fc37 a73f 451f bdbc
0.07209504 -0.009587407 -0.29145136 -0.27070567 -0.1463648 -0.3294409 -0.10054237 0.34152386
2.4506977 1.7063016 2.8366024 1.9661914 0.711699 -0.55523825 -0.19486992 1.4437287
0.18309979 0.35166958 -1.4432707 -0.8104148 0.55212355 1.759544 0.609981 1.9121287
-0.5774856 -0.6373073 0.17507514 0.23843431 -1.1430866 2.3966994 1.581332 1.6143899
1.0278924 2.1767051 -0.836611 -1.6394204 2.368583 -0.10637043 -0.07966927 -0.0022744315
-1.706244 1.6131938 -0.72556454 1.7004732 2.2497003 0.61478 -0.056985658 0.92611337
0.12167096 -0.00068746886 0.1571422 -0.8160994 1.1394576 -0.15546285 2.3942676 -1.7609344
-0.22824986 -2.0703712 -0.077669315 2.088676 1.4306474 0.76176536 1.306396 -0.0230862

l2.bias f4 [8]
00000000: 35d8 55be d14b 5d3f 6368 07be 8114 243f
00000010: 0c04 273f f5fb 9a3e 5139 833f 6a30 113f
-0.20883258 0.8644381 -0.13223414 0.64093786 0.6524055 0.30270353 1.0251867 0.567145

l3.weight f4 [24, 8]
00000000: 00c8 8d3a c713 1ac0 3ec3 d73d ed62 e8be
00000010: c351 9f3e d9be 403d 8191 ed3e 1615 293f
00000020: 5ab3 f6bd e080 183f 50be b0bf 1c23 09bf
00000030: cf8f 0dbf 334f 073c f02a 1bc0 0fcb 13c0
00000040: 1dd7 86be 4088 163f 8720 20c0 16a7 41c0
00000050: 2025 3d3f 353b d2bf f16f 09c0 8a06 fbbf
00000060: 4616 8ebe 77be af3d 8421 5bbe cc9c ee3e
00000070: fa00 03c0 e663 9bbf 9206 d5bf a5fd 733e
00000080: ec2a 8d3d 05d0 c13e 7dfc 3bc0 7194 9e3b
00000090: 7a0a 37c0 5884 42bd d13e 2ec0 b351 853e
000000a0: c8c6 bfbd 6cd3 363f e0a6 07c0 ea30 2fc0
000000b0: 4fde 7bbf 8b5b c2be 5ad7 b6bf 80bd 3b3e
000000c0: b909 1ebe 2a34 13c0 ef41 bbbd 8c78 623f
000000d0: 140a c8bf 41ed 62bf 4ba8 713f e17f 983e
000000e0: d03c 103d 542f 75bf 1dd4 55bd 8cb0 dbbd
000000f0: b98c dabf f0a1 fd3e 82a5 b03c b0da 293f
00000100: a518 973e f08b 95bf 1254 4a3f d69f 073f
00000110: 5ae1 09c0 8149 df3c 43f3 fcbf 8a75 e53e
00000120: 2e3f 103e 8acc 603e b6f9 82bf e91d 41c0
00000130: 1dab f33e 7729 0cc0 12e4 3b3f 27dd cbbf
00000140: 73b3 ad3e 6076 76bf 2280 b33e 8d77 50bd
00000150: 3b35 b2be 7fab 143f e0da 0ac0 1655 583d
00000160: af86 853e 88f3 76bf 964d 6a3e 5d8e 34c0
00000170: ccd2 0a3f 36e3 583f 05b0 d03c 5725 9dbf
00000180: e3ba 4abe 3caa bfbd 13c3 2ec0 b017 5cbf
00000190: 9b35 37c0 5f64 3f3f 810d 013e a016 ff3e
000001a0: 901f 5f3d 01a3 c6be 780c 013f ccf1 8abf
000001b0: ead5 043f d348 fa3d fb6d 01c0 4ac7 83bf
000001c0: c587 983e 3697 9a3e c2a6 2fc0 24c5 abbe
000001d0: 25b1 1ac0 cccd 36c0 6101 103f 3c05 973d
000001e0: cc0b 953d a1f3 febe f7bc af3e 7467 b73e
000001f0: 564b 16bf 77ee 32c0 9951 d53e 8d81 b6bb
00000200: d6e8 563e 30bd abbe 8834 d8bf 3eae b0bf
00000210: d533 523e f448 5abf 173e 503f fe91 0c3f
00000220: 707f 92bc 92ec 943e ccd8 803e 2bee 84c0
00000230: 1193 ac3e 1c2a a6be 6256 a2bf 020b 48bf
00000240: 51ce 9d3e cd59 593e b129 823e 274c 85bf
00000250: 0cc6 a53d 3cb0 d5bf a3f8 b4be cc9b 33bf
00000260: 3a3a 4f3e 5717 91bf 8ff6 963e 622d 653d
00000270: 14c4 913e 48bc 183d 80ab 5c3d 9c50 39bf
00000280: b0b0 9bbe c951 86bf bf01 003f cbdb 16c0
00000290: d531 0c3f bc44 4bbe e560 243f 5695 8e3e
000002a0: 3e79 633e a985 05be 67ca 9a3e 733c e53e
000002b0: 1faf cabf 923e b13e c358 b6bf 3d87 f1bf
000002c0: 720b 9fbe fa37 0ebe 979d adbf e6cd 22c0
000002d0: c4e2 413f 37c5 923d 1960 503e 0fd7 dbbf
000002e0: 4dce 39be 594d acbd 247f 5bbf 3f2a a6bf
000002f0: 12e1 efbe 7049 443f 3fe6 c7bf 244d e73e
0.0010817051 -2.407457 0.10535286 -0.45387974 0.31117067 0.047057007 0.46400073 0.660478
-0.12045927 0.5957165 -1.3808079 -0.535692 -0.5529756 0.008258629 -2.4244957 -2.3092687
-0.26335993 0.5880165 -2.5019853 -3.025823 0.73884773 -1.6424319 -2.1474574 -1.961137
-0.27751368 0.0858125 -0.21399504 0.46604002 -2.0469346 -1.2139862 -1.664263 0.23827226
0.06892952 0.3785402 -2.9372857 0.004839473 -2.8600144 -0.047489494 -2.722584 0.26038894
-0.093640864 0.71416354 -2.1195602 -2.7373605 -0.9838609 -0.37960467 -1.428447 0.18334007
-0.15433396 -2.3000588 -0.09143435 0.8846519 -1.5628076 -0.8864327 0.9439742 0.29785064
0.035214245 -0.9577534 -0.05220424 -0.10727033 -1.7074195 0.4953761 0.021563295 0.66349316
0.2951099 -1.168333 0.7903453 0.52978265 -2.1543794 0.02725673 -1.9761738 0.44816238
0.14086601 0.21953025 -1.0232456 -3.0174506 0.47591487 -2.1900308 0.7339488 -1.5926865
0.3392597 -0.96274376 0.35058695 -0.050895263 -0.34806237 0.5807418 -2.169609 0.05281552
0.26079318 -0.9646535 0.22881159 -2.8211892 0.542279 0.84721696 0.025474558 -1.227702
-0.19797854 -0.093586415 -2.7306564 -0.85973644 -2.8626468 0.7476253 0.12602808 0.4982195
0.05447346 -0.38796237 0.5040965 -1.085504 0.51888907 0.12220921 -2.0223377 -1.0295193
0.29791084 0.3019349 -2.744553 -0.33548844 -2.417062 -2.8563108 0.56252104 0.07374045
0.07277641 -0.4979525 0.34323856 0.35821116 -0.58708704 -2.7958047 0.41663817 -0.005569643
0.20987257 -0.33542776 -1.6891031 -1.3803174 0.20527585 -0.8526757 0.8134474 0.54910266
-0.017883033 0.2908674 0.25165403 -4.154073 0.33705953 -0.32454002 -1.2682612 -0.78141797
0.3082147 0.21225663 0.25422433 -1.0413865 0.08094415 -1.6694407 -0.35345945 -0.701596
0.20237055 -1.1335248 0.29484984 0.055951484 0.28469908 0.037288934 0.053874493 -0.72388625
-0.3040824 -1.0493709 0.50002664 -2.357165 0.5476354 -0.19850439 0.6421035 0.2784831
0.22214219 -0.13039269 0.30232546 0.44772682 -1.5834693 0.3461805 -1.4245838 -1.8869396
-0.3106342 -0.13888541 -1.3563718 -2.543817 0.7573664 0.07166522 0.20349158 -1.7175006
-0.18145104 -0.084131904 -0.85740876 -1.2981642 -0.46851403 0.76674557 -1.561714 0.4517604

l3.bias f4 [24]
00000000: 959a babe ac36 85bc 37e8 2b3e edc6 683e
00000010: d5ce a83e e45d a1be de24 7c3e 72ee 8bbe
00000020: 9de6 8abe 1434 96bd 1d96 20bd 5e94 09bf
00000030: 7172 a13d 8a71 44be a698 a93e 4dc2 3a3e
00000040: e235 b13d 7d7f 33be 4214 9e3e ed43 b4be
00000050: 0089 49be 77db 053e 37a3 9e3c 6348 bfbd
-0.36446062 -0.016261421 0.16787802 0.22732134 0.329703 -0.31516945 0.24623439 -0.27330357
-0.2712907 -0.07334152 -0.03920566 -0.53742015 0.07883156 -0.19183937 0.33124274 0.18238182
0.086528555 -0.17529102 0.3087483 -0.35208073 -0.19681168 0.13072 0.019364936 -0.093399785
