data.pth (torch, 6442 bytes, 6 tensors)

l1.weight f4 [8, 69]
0	0xbe9ee18a	-0.31031448
1	0xbd575e4c	-0.052580163
2	0x3d9b9c3e	0.0759816
3	0x3f38393d	0.7196234
4	0x3e91b12d	0.28455487
5	0x3f294ca0	0.66132545
6	0x3f478cfb	0.77949494
7	0x3e5a4f43	0.21319298
8	0x3eb616c4	0.35564244
9	0x3e9df4b4	0.30850756
10	0xbe2831bb	-0.1642522
11	0xbe6524f8	-0.22377384
12	0xbf54e921	-0.83168226
13	0x3f0aef8d	0.54271775
14	0x3f01cc35	0.5070222
15	0xbed8bc11	-0.42330983
16	0x3f20e191	0.6284419
17	0xbf7696dd	-0.9632395
18	0xbf276192	-0.65383255
19	0x3f0e727a	0.5564343
20	0x3f2fef70	0.6872473
21	0x3ef2bd36	0.4740998
22	0x3ec6f91b	0.38861927
23	0x3edfbac2	0.43697172
24	0x3f356079	0.7085033
25	0x3ef5b7a1	0.4799166
26	0x3ef93fbd	0.4868144
27	0x3f37d721	0.71812636
28	0xbeb6f414	-0.35733092
29	0x3f43306d	0.76245767
30	0x3f4d8d7d	0.8029402
31	0x3e1a94fe	0.15095899
32	0x3e2310a3	0.15924315
33	0x3e3f2b14	0.18668777
34	0xbdfbad1e	-0.12288879
35	0x3f440108	0.76564074
36	0xbda5a8a0	-0.08088803
37	0x3f973ec1	1.1816026
38	0x3f2f23ad	0.6841381
39	0x3e1dfab0	0.15427661
40	0x3eca07b5	0.39459005
41	0x3f179439	0.59210545
42	0x3efc7ea1	0.4931536
43	0x3d623445	0.05522563
44	0x3e9bdcb3	0.30441818
45	0x3ed96924	0.42463028
46	0x3e91c284	0.28468716
47	0x3e93521d	0.28773585
48	0xbf62d08b	-0.8859946
49	0x3f4598ba	0.7718617
50	0x3ef463d2	0.47732407
51	0x3ec1af8b	0.3782924
52	0x3f00eaf2	0.503585
53	0xbe1a51c7	-0.15070258
54	0x3e0bd03d	0.13653655
55	0xbf7cea87	-0.9879536
56	0xbeca2468	-0.394809
57	0x3e9ce112	0.30640465
58	0x3d75f3ba	0.06004689
59	0x3ec73d79	0.38914087
60	0xbcc24ec2	-0.023719195
61	0x3da6888b	0.08131512
62	0x3efc3aa9	0.49263504
63	0x3f405801	0.75134283
64	0x3f36f65f	0.7146968
65	0x3e9993f8	0.29995704
66	0x3e5c7580	0.21529198
67	0x3ecda755	0.40166727
68	0x3ec38f42	0.38195235
69	0xbe279e67	-0.1636902
70	0x3d09de71	0.033659402
71	0xbde83065	-0.113373555
72	0x3f46ba38	0.776279
73	0x3effe7fc	0.49981678
74	0x3ec177fd	0.37786856
75	0x3f2a2645	0.66464645
76	0x3edac033	0.4272476
77	0x3f4af1a5	0.7927497
78	0x3f1b8310	0.6074686
79	0x3f6c5ddc	0.9233072
80	0xbf178a72	-0.59195626
81	0xbee7f770	-0.45305967
82	0x3e9f091d	0.3106164
83	0x3f466088	0.77491045
84	0x3e8432c0	0.2581997
85	0xbdaf1afe	-0.0855007
86	0xbf0811ad	-0.5315197
87	0x3f040882	0.5157548
88	0xbe63f2e6	-0.22260627
89	0x3e8d75da	0.27628976
90	0xbe8d898e	-0.27644008
91	0x3b2fae22	0.0026806672
92	0x3cd97dcd	0.026549244
93	0x3f394389	0.72368675
94	0xbed43d7f	-0.41453168
95	0x3d030ccc	0.031994626
96	0xbddd25b3	-0.10798206
97	0xbe680901	-0.22659685
98	0xbe0aa5ae	-0.13539764
99	0xbe4ce903	-0.20010762
100	0x3eca548d	0.39517632
101	0x3ec2a2a2	0.38014704
102	0xbec4ef1d	-0.3846368
103	0xbeebef51	-0.4608102
104	0x3ea852b1	0.3287559
105	0xbdf47f47	-0.11938339
106	0x3e62b560	0.22139502
107	0x3f6d7510	0.9275675
108	0xbdc8a9fa	-0.097980455
109	0x3f44626e	0.7671269
110	0x3f2cb80b	0.6746833
111	0xbf20eeaa	-0.6286417
112	0x3ea13164	0.31482995
113	0x3f03b96c	0.51454806
114	0x3e9a2e2e	0.30113357
115	0x3ed237d6	0.41058224
116	0xbec852bf	-0.3912563
117	0xbf3d637b	-0.7397992
118	0x3ecc426d	0.3989443
119	0xbee340de	-0.44385427
120	0xbf278a60	-0.6544552
121	0x3f1fc03f	0.6240272
122	0xbea86a00	-0.32893372
123	0xbd23ff83	-0.040038597
124	0xbf2a923f	-0.66629404
125	0xbe357e1c	-0.17723888
126	0x3ee9a4f8	0.45633674
127	0x3efb2136	0.49048775
128	0x3f14f49d	0.5818575
129	0x3f85c847	1.0451745
130	0xbe64b2fd	-0.22333904
131	0xbed71f05	-0.42015854
132	0xbf0fd015	-0.56176883
133	0x3e9c093c	0.30475795
134	0x3eee35e9	0.46525505
135	0xbea66c31	-0.32504418
136	0x3dcb2ca1	0.09920622
137	0xbe46f6df	-0.19430111
138	0xbe765ac4	-0.24058062
139	0xbcd2a64d	-0.025714064
140	0x3e7f6d41	0.24944021
141	0xb9e84c80	-0.00044307485
142	0xbd6f4961	-0.05841959
143	0x3e437c3d	0.19090362
144	0xbf07c5be	-0.53036106
145	0xbdb88fb1	-0.09011782
146	0x3c2c9fc0	0.010536134
147	0x3d5629dd	0.052286018
148	0x3cdcae05	0.026938448
149	0xbe923ba2	-0.2856112
150	0xbeb85cd1	-0.36008313
151	0x3f2fe983	0.68715686
152	0xbc98d30b	-0.01865532
153	0x3fa22119	1.2666351
154	0xbe88c2a3	-0.26710996
155	0x3f794668	0.97373056
156	0xbe9d3127	-0.30701563
157	0xbe3ca78b	-0.18423288
158	0x3e98fc3a	0.29879934
159	0xbd81ac51	-0.06331695
160	0x3f082480	0.53180695
161	0xbe86ab48	-0.26302552
162	0xbf07bed0	-0.5302553
163	0x3f0d3542	0.5515939
164	0x3f0dc0c4	0.5537226
165	0xbf077d84	-0.52925897
166	0xbdb27d50	-0.08715308
167	0xbf07a930	-0.52992535
168	0xbf07ac08	-0.52996874
169	0x3ea463ca	0.32107383
170	0xbd9d479c	-0.07679674
171	0x3ef07e86	0.4697153
172	0xbe51f251	-0.20502593
173	0xbcd25970	-0.025677413
174	0xbd8c410d	-0.06848345
175	0x3fabbcfb	1.3417047
176	0xbdffb810	-0.12486279
177	0x3ed606d7	0.41802093
178	0x3ec4b2ee	0.38417763
179	0x3ed9e45b	0.42557034
180	0x3ca7a504	0.020464428
181	0x3f00d4ba	0.50324595
182	0xbe0962c1	-0.13416578
183	0xbc6c2724	-0.014413629
184	0xbc88942b	-0.016672214
185	0x3ee78894	0.45221388
186	0xbeecd403	-0.46255502
187	0x3b796340	0.0038053542
188	0xbe226700	-0.15859604
189	0xbebe90bd	-0.37219802
190	0xbde71865	-0.1128395
191	0xbdeb085f	-0.11476206
192	0x3e4751f7	0.19464861
193	0xbf07b073	-0.53003615
194	0xbe4f9350	-0.20271039
195	0xbdcb5000	-0.09927368
196	0x3f1734ae	0.5906476
197	0x3f0b92b5	0.5452073
198	0x3f05a91c	0.52211165
199	0x3f12fb37	0.57414573
200	0x3f2a22b9	0.6645923
201	0x3ee55057	0.44787857
202	0x3f4fc2f6	0.8115686
203	0xbe537f0f	-0.20653938
204	0xbf6a71c3	-0.91579837
205	0xbf39d16a	-0.72585166
206	0xbf12cdd1	-0.573453
207	0x3f34ea29	0.706698
208	0x3f02105d	0.5080622
209	0xbecaf0bd	-0.39636794
210	0x3ea100a8	0.31445813
211	0x3f0106d7	0.5040106
212	0x3e33abb8	0.17545974
213	0x3f05bb8b	0.5223929
214	0x3c032a57	0.0080057
215	0x3e95d65c	0.29265106
216	0xbf3060c2	-0.6889764
217	0xbf270597	-0.65242904
218	0x3dedccd6	0.11611335
219	0x3ee25d32	0.44211727
220	0xbf75d9f6	-0.96035707
221	0x3ebfb9eb	0.37446532
222	0xbf038ea1	-0.5138951
223	0x3f24c69a	0.6436554
224	0xbb3bb733	-0.002864313
225	0x3ee6ddce	0.450911
226	0x3c915360	0.017739952
227	0x3e928f38	0.28624892
228	0xbbf8c420	-0.0075917393
229	0xbf1628d7	-0.58656067
230	0x3f12b09c	0.57300735
231	0x3ef87b07	0.48531362
232	0xbedaf046	-0.4276144
233	0xbdbf86be	-0.09351872
234	0x3f8f907e	1.121597
235	0x3f0c1b85	0.5472949
236	0x3f82b753	1.0212196
237	0x3f97f860	1.1872673
238	0x3edfd52a	0.4371732
239	0xbd5bbbd7	-0.053645935
240	0x3d7aef6d	0.06126349
241	0x3e805188	0.25062203
242	0xbf1d71e5	-0.61501914
243	0x3f0d2690	0.55136967
244	0xbf45f17e	-0.7732161
245	0x3e4f6eca	0.20257106
246	0xbe77d14e	-0.24200937
247	0xbd368819	-0.044563387
248	0xbef60f5a	-0.48058587
249	0x3ef25d4f	0.47336814
250	0xbe97f783	-0.29681024
251	0xbf3ac784	-0.72960687
252	0xbe25a12a	-0.1617476
253	0xbd6343a6	-0.055484436
254	0x3e7e4926	0.24832591
255	0xbe024ff2	-0.12725809

l1.bias f4 [8]
0	0x3f87fc9d	1.0623966
1	0x3f10fbd6	0.5663427
2	0x3f07b0c5	0.53004104
3	0x3f8fb575	1.1227251
4	0x3f56464d	0.8370102
5	0x3ef20fd8	0.47277713
6	0x3f5fc2ef	0.8740682
7	0x3ee6fa04	0.45112622

l2.weight f4 [8, 8]
0	0x3fd0e263	1.6319088
1	0xbe062a67	-0.13102113
2	0x3f1ddb8d	0.6166313
3	0xbf9655d3	-1.1744941
4	0x3fd7d8f3	1.6863083
5	0xbf009161	-0.5022183
6	0xbec8e0e2	-0.39234072
7	0xbf31b39e	-0.694147
8	0xbd23811e	-0.039918058
9	0xbe99350f	-0.29923293
10	0xbdf7cb39	-0.120993085
11	0xbe04407b	-0.12915222
12	0x3e5dcf9a	0.21661225
13	0xbe7ce0f5	-0.2469519
14	0xbe94819e	-0.2900514
15	0xbeb7c264	-0.35890496
16	0x3e9bbea3	0.30418882
17	0xbf8fa94f	-1.1223544
18	0x3f4d4e67	0.8019776
19	0x3f207f5f	0.6269435
20	0x3e978cfd	0.29599753
21	0xbf1eded1	-0.6205874
22	0x3fce1eb4	1.610312
23	0xbf48389f	-0.78211397
24	0xbe5f86c7	-0.21828757
25	0x3e93ff81	0.28905872
26	0x3e3839d6	0.17990813
27	0xbdee421f	-0.11633705
28	0xbda42833	-0.0801548
29	0xbe865f87	-0.26244757
30	0xbe9be634	-0.3044907
31	0xbe978af8	-0.29598212
32	0x3f9dbf47	1.2323998
33	0x3f4c3fa7	0.79784626
34	0xbfb1f2db	-1.3902239
35	0x3f9f7b76	1.2459552
36	0xbef9ebe8	-0.48812795
37	0x3e94c9f1	0.2906032
38	0x3fe86105	1.8154608
39	0x3e763068	0.24041903
40	0x3fde4628	1.736516
41	0x3fa0bcb8	1.2557592
42	0x3e15e141	0.14636709
43	0x3f25fb7f	0.6483688
44	0xbf05f324	-0.5232413
45	0x3f530e10	0.8244333
46	0xbf770080	-0.9648514
47	0x3f968007	1.1757821
48	0xbf2037a8	-0.62584925
49	0x3e3c4894	0.18387061
50	0x3f8062c8	1.0030146
51	0xbf93b6ea	-1.1540196
52	0x3f10cc67	0.56561893
53	0x3fc1fc74	1.5155168
54	0x3f6df3bf	0.9295005
55	0x3fa690a6	1.3012893
56	0xbedcda66	-0.43135375
57	0xbfb3ece0	-1.4056664
58	0xbef12700	-0.47100067
59	0x3f9b4b9b	1.2132448
60	0x3ff0a0c0	1.8799057
61	0x3e581793	0.21102743
62	0x3f562899	0.836557
63	0x3f279ec3	0.65476626

l2.bias f4 [8]
0	0x3f1a94b0	0.6038313
1	0xbea1c9ec	-0.31599367
2	0x3f11c8d1	0.56947047
3	0xbde39426	-0.111122414
4	0x3ee0321e	0.43788236
5	0x3f060a68	0.5235963
6	0x3cd0a9a5	0.025471518
7	0x3f35ec45	0.71063644

l3.weight f4 [13, 8]
0	0xbfa8c060	-1.3183708
1	0xbdde2a5f	-0.108479254
2	0xbf21bfdd	-0.63183385
3	0x3ddf0bc1	0.10890914
4	0xbfbb9d14	-1.4657311
5	0x3eeced8a	0.46274978
6	0x3f466e31	0.7751189
7	0xbfc7f430	-1.5621395
8	0xbebf275c	-0.37334716
9	0xbe9d972d	-0.307794
10	0xbfc32a82	-1.5247347
11	0xbe42a12d	-0.19006796
12	0xbf0fbf1b	-0.5615098
13	0x3e41dac4	0.18931109
14	0x3d2dc4cd	0.042424012
15	0x3e6979b9	0.2280034
16	0xbf0f14ed	-0.55891305
17	0xbe6256ec	-0.2210347
18	0xbe67cfeb	-0.22637908
19	0xbe98c297	-0.2983596
20	0xc025abc3	-2.5886085
21	0xbe50dde6	-0.20397148
22	0x3f09935a	0.53740466
23	0x3ed4ddae	0.41575378
24	0x3eb3d6d9	0.35124853
25	0x3e99d60b	0.30046114
26	0x3ed62516	0.4182517
27	0xbebc8675	-0.36821333
28	0xbfd5ee7b	-1.6713403
29	0xc00b9348	-2.1808643
30	0x3ea31438	0.31851363
31	0x3f0e1829	0.55505615
32	0x3f4fb391	0.8113337
33	0xbe4b0511	-0.19826151
34	0x3f14b3fa	0.5808712
35	0x3e966d93	0.29380473
36	0xbfd72c36	-1.6810367
37	0xbef0ff69	-0.47069862
38	0xbf1e0021	-0.61718947
39	0xbddb9d07	-0.1072331
40	0xbfc6bfa0	-1.5527229
41	0x3e7ba955	0.24576314
42	0xbf2a1f9d	-0.6645449
43	0xbcb04dc6	-0.02152146
44	0x3e888555	0.26664224
45	0xbfafb930	-1.372839
46	0x3ef9c9cf	0.4878678
47	0x3f0556c4	0.5208552
48	0x3e229762	0.1587806
49	0x3d612082	0.054962642
50	0xbd6099c0	-0.054834127
51	0x3e8e3ca7	0.2778065
52	0x3e194c77	0.14970575
53	0xbfab652c	-1.339025
54	0x3dcdb7f7	0.10044854
55	0xbd99f3e2	-0.0751722
56	0x3e6625f2	0.22475412
57	0x3e29b610	0.16573358
58	0xbfeac273	-1.8340591
59	0xbeae4bfa	-0.3404234
60	0x3dd5de47	0.10442787
61	0x3f24106a	0.64087546
62	0xbff06ee5	-1.8783842
63	0xbd95776d	-0.07298169
64	0xbf737b66	-0.95110166
65	0xbcda7d88	-0.026671186
66	0x3f20e259	0.6284538
67	0xbda4c8ea	-0.08046134
68	0x3f2f0be3	0.6837751
69	0xbf15858a	-0.5840689
70	0xbf81a8b9	-1.0129615
71	0xbed297a9	-0.41131333
72	0x3efc1368	0.49233556
73	0xbea2cb3f	-0.3179569
74	0xbd22cfa2	-0.039748795
75	0xbe5d4ac6	-0.21610555
76	0xbe581804	-0.21102911
77	0xbf3f4f5f	-0.74730486
78	0xbfe8dec5	-1.8192984
79	0x3f16916d	0.5881565
80	0x3f2e3e48	0.68063784
81	0x3e948f69	0.29015663
82	0xbebfd368	-0.37465978
83	0xbe6d123e	-0.2315149
84	0xbfc683b0	-1.5508938
85	0x3dbc17dd	0.09184239
86	0x3dee9095	0.116486706
87	0xbfe71911	-1.8054525
88	0xbf020c7a	-0.5080029
89	0xbd797849	-0.06090573
90	0xbf093511	-0.535966
91	0xbea6d8ed	-0.32587376
92	0x3f4003d7	0.7500586
93	0x3ea91a8a	0.3302806
94	0xbefc76f4	-0.49309504
95	0xc00d8a8a	-2.2115808
96	0xbfb7c23a	-1.4356148
97	0x3ea85f28	0.32885098
98	0x3ee054cd	0.43814698
99	0xbe97d6bb	-0.29656014
100	0x3e208b46	0.15678129
101	0xc022182f	-2.532726
102	0xbfa23ded	-1.2675148
103	0x3f83bc85	1.0291907

l3.bias f4 [13]
0	0xbe215654	-0.15755588
1	0x3d0ad4c7	0.033894327
2	0x3d26b600	0.040700912
3	0xbd714983	-0.058907997
4	0xbe7a4e1a	-0.24443856
5	0xbede3d49	-0.43406132
6	0xbeddac34	-0.43295443
7	0x3dab784e	0.08372556
8	0x3ecc759c	0.3993348
9	0x3ea6a302	0.3254624
10	0xbc50412d	-0.012710852
11	0xbd8dcf9b	-0.06924363
12	0x3ef5dda6	0.48020667
